…
orm dropout regularization. The second hidden layer comes next, with 128 hidden units, followed by a dropout layer. The final layer is the output layer, with activation "softmax" (10.13) for the 10-class classification problem, which defines the map from the second hidden layer to class probabilities. Finally, we use summary() to summarize the model, and to make sure we got it all right.

> summary(modelnn) --------------------------------------------------------------- Layer(type) Output Shape Param # ============================================================================== dense(Dense) (None, 256) 200960 --------------------------------------------------------------- dropout(Dropout) (None, 256) 0 --------------------------------------------------------------- dense_1(Dense) (None, 128) 32896 --------------------------------------------------------------- dropout_1(Dropout) (None, 128) 0 --------------------------------------------------------------- dense_2(Dense) (None, 10) 1290 --------------------------------------------------------------- Total params: 235,146 Trainable params: 235,146 Non-trainable params: 0 The parameters for each layer include a bias term, which results in a parameter count of 235,146. For example, the first hidden layer involves \((784+1)\times 256=200\),960 parameters.

Notice that the layer names such as dropout_1 and dense_2 have subscripts. These may appear somewhat random; in fact, if you fit the same model again, these will change. They are of no consequence: they vary because the model specification code is run in python, and these subscripts are incremented every time keras_model_sequential() is called.
…
rnel_size = c(3, 3),  padding = "same", activation = "relu") %>% + layer_max_pooling_2d(pool_size = c(2, 2)) %>% + layer_conv_2d(filters = 256, kernel_size = c(3, 3),  padding = "same", activation = "relu") %>% + layer_max_pooling_2d(pool_size = c(2, 2)) %>% + layer_flatten() %>% + layer_dropout(rate = 0.5) %>% + layer_dense(units = 512, activation = "relu") %>%+ layer_dense(units=100,activation="softmax") > summary(model) --------------------------------------------------------------- Layer(type) OutputShapeParam# --------------------------------------------------------------- conv2d(Conv2D) (None,32,32,32) 896 --------------------------------------------------------------- max_pooling2d(MaxPooling2D(None,16,16,32) 0 --------------------------------------------------------------- conv2d_1(Conv2D) (None,16,16,64) 18496 --------------------------------------------------------------- max_pooling2d_1(MaxPooling(None,8,8,64) 0 --------------------------------------------------------------- conv2d_2(Conv2D) (None,8,8,128) 73856 --------------------------------------------------------------- max_pooling2d_2(MaxPooling(None,4,4,128) 0 --------------------------------------------------------------- conv2d_3(Conv2D) (None,4,4,256) 295168 --------------------------------------------------------------- max_pooling2d_3(MaxPooling(None,2,2,256) 0 --------------------------------------------------------------- flatten(Flatten) (None,1024) 0 --------------------------------------------------------------- dropout(Dropout) (None,1024) 0 --------------------------------------------------------------- dense(Dense) (None,512) 524800 --------------------------------------------------------------- dense_1(Dense) (None,100) 51300 ---------------------------------------------------------------

Total params:964,516 Trainableparams:964,516 Non-trainableparams:0

Notice that we used the padding = "same" argument to layer_conv_2D(), which ensures that the output channels have the same dimension as the input channels. There are 32 channels in the first hidden layer, in contrast to the three channels in the input layer. We use 
…
